…
#Install donkey in editable mode
pip install -e c:\Users\boss\donkey

#Create video from session files
ffmpeg -pattern_type glob -i 'frame*.jpg' -c:v libx264 -pix_fmt yuv420p output.mp4

#What is this RPI log?
center: 370

#What is lag_log.csv?
 247,544 lag_log.csv

model summary is below:
_____________________________________________________________________________________________________
Layer (type)                     Output Shape          Param #     Connected to
====================================================================================================
img_in (InputLayer)              (None, 120, 160, 3)   0											57600
____________________________________________________________________________________________________
conv2d_1 (Conv2D)                (None, 58, 78, 24)    1824        img_in[0][0]						108576
____________________________________________________________________________________________________
conv2d_2 (Conv2D)                (None, 27, 37, 32)    19232       conv2d_1[0][0]					31968
____________________________________________________________________________________________________
conv2d_3 (Conv2D)                (None, 12, 17, 64)    51264       conv2d_2[0][0]					13056
____________________________________________________________________________________________________
conv2d_4 (Conv2D)                (None, 5, 8, 64)      36928       conv2d_3[0][0]					2560
____________________________________________________________________________________________________
conv2d_5 (Conv2D)                (None, 3, 6, 64)      36928       conv2d_4[0][0]					1152
____________________________________________________________________________________________________
dense_2 (Dense)                  (None, 50)            5050        dropout_1[0][0]					50
____________________________________________________________________________________________________
flattened (Flatten)              (None, 1152)          0           conv2d_5[0][0]					1152
____________________________________________________________________________________________________
dense_1 (Dense)                  (None, 100)           115300      flattened[0][0]					100
____________________________________________________________________________________________________
dropout_1 (Dropout)              (None, 100)           0           dense_1[0][0]					100
____________________________________________________________________________________________________
dropout_2 (Dropout)              (None, 50)            0           dense_2[0][0]					50
____________________________________________________________________________________________________
angle_out (Dense)                (None, 15)            765         dropout_2[0][0]					15 (branch 1)
____________________________________________________________________________________________________
throttle_out (Dense)             (None, 1)             51          dropout_2[0][0]					1 (branch 2)
====================================================================================================
Total params: 267,342
Trainable params: 267,342
Non-trainable params: 0
____________________________________________________________________________________________________

NVIDIA paper:

input: 3x66x200 = 39600
C1: 24*31*98 = 72912
C2: 36*14*47 = 23688
C3: 48*5*22  = 5280
…
